experiments/layer_sweep/layer_sweep_results/propensities_layer_11.npy (npy, 688 bytes, 1 tensors)

array f8 [10, 7]
000000 00 00 00 40 95 cb f8 3f 00 00 00 d0 d8 93 10 40
       1.5497028827667236 4.144381761550903
000010 00 00 00 10 08 c6 13 40 00 00 00 08 a2 ac 14 40
       4.943390130996704 5.168586850166321
000020 00 00 00 c0 fb f4 15 40 00 00 00 c0 48 16 13 40
       5.489241600036621 4.771761894226074
000030 00 00 00 20 bf 20 f9 3f 00 00 00 b8 30 db 11 c0
       1.5704947710037231 -4.46405303478241
000040 00 00 00 60 1c 86 f1 bf 00 00 00 90 16 62 08 40
       -1.095241904258728 3.047894597053528
000050 00 00 00 4c 28 04 20 40 00 00 00 f8 85 4c 23 40
       8.008119940757751 9.649459600448608
000060 00 00 00 b0 1c d5 21 40 00 00 00 40 03 ef 1b 40
       8.916234493255615 6.983410835266113
000070 00 00 00 68 0e 17 1d c0 00 00 00 b0 3b 8e 19 c0
       -7.272515892982483 -6.388899564743042
000080 00 00 00 70 ed b8 04 40 00 00 00 44 5f 46 21 40
       2.5902966260910034 8.637445569038391
000090 00 00 00 2c 67 eb 23 40 00 00 00 c0 30 77 18 40
       9.959771513938904 6.116396903991699
0000a0 00 00 00 a0 89 c1 0f 40 00 00 00 b0 45 0b 18 40
       3.969500780105591 6.011008024215698
0000b0 00 00 00 38 41 08 1f 40 00 00 00 7c a1 b2 22 40
       7.7580612897872925 9.348888278007507
0000c0 00 00 00 70 53 da 25 40 00 00 00 2c 6c 2f 24 40
       10.926417827606201 10.09262216091156
0000d0 00 00 00 04 d9 58 29 40 00 00 00 24 70 67 26 40
       12.67353069782257 11.202027440071106
0000e0 00 00 00 c0 72 c7 eb bf 00 00 00 c0 c5 c3 e6 3f
       -0.8680967092514038 0.7113980054855347
0000f0 00 00 00 b0 10 0d 03 40 00 00 00 10 70 ba 0b 40
       2.38137948513031 3.4660340547561646
000100 00 00 00 20 96 5f 0e 40 00 00 00 10 be 72 13 40
       3.796673059463501 4.862053155899048
000110 00 00 00 60 ae 78 10 40 00 00 00 d0 51 3f 17 c0
       4.117852687835693 -5.811835527420044
000120 00 00 00 60 5b 4c 06 c0 00 00 00 b8 ab 3e 13 40
       -2.7872836589813232 4.8112019300460815
000130 00 00 00 d0 39 03 1f 40 00 00 00 80 39 b6 20 40
       7.753150224685669 8.355907440185547
000140 00 00 00 e0 dc 79 20 40 00 00 00 18 b3 9b 16 40
       8.23801326751709 5.6520503759384155
000150 00 00 00 10 b3 26 17 c0 00 00 00 70 09 ed 10 c0
       -5.787792444229126 -4.231481313705444
000160 00 00 00 e8 14 5c 16 40 00 00 00 f8 df 49 23 40
       5.5899235010147095 9.644286870956421
000170 00 00 00 68 37 ad 23 40 00 00 00 20 28 0c 23 40
       9.838313341140747 9.523743629455566
000180 00 00 00 70 f2 f4 21 40 00 00 00 20 2c ab 14 c0
       8.97841215133667 -5.167160511016846
000190 00 00 00 10 95 6a 1a c0 00 00 00 70 e9 54 14 c0
       -6.604084253311157 -5.082921743392944
0001a0 00 00 00 20 40 e3 fe bf 00 00 00 00 a4 4a be bf
       -1.9304810762405396 -0.11832642555236816
0001b0 00 00 00 a0 2e 00 f4 3f 00 00 00 a0 c2 e3 fb 3f
       1.2500444650650024 1.7431055307388306
0001c0 00 00 00 20 8c 3f fa 3f 00 00 00 f8 f4 1d 13 40
       1.6405144929885864 4.779254794120789
0001d0 00 00 00 a8 ad d9 11 40 00 00 00 c8 bb 93 12 40
       4.462576508522034 4.644271016120911
0001e0 00 00 00 48 4d 81 10 40 00 00 00 40 0d 6d 18 40
       4.126271367073059 6.1064958572387695
0001f0 00 00 00 38 c7 26 13 40 00 00 00 c0 49 62 0c 40
       4.787869334220886 3.54799222946167
000200 00 00 00 e8 07 89 23 40 00 00 00 4c 5f ce 26 40
       9.767638444900513 11.40307080745697
000210 00 00 00 48 38 eb 26 40 00 00 00 b0 84 8a 28 40
       11.459413766860962 12.270543575286865
000220 00 00 00 24 9a d1 28 40 00 00 00 bc b5 1d 2a 40
       12.409379124641418 13.058027148246765
