experiments/layer_sweep/layer_sweep_results/propensities_layer_13.npy (npy, 688 bytes, 1 tensors)

array f8 [10, 7]
000000 00 00 00 90 48 1c 00 c0 00 00 00 80 58 fb f2 3f
       -2.0138102769851685 1.186363697052002
000010 00 00 00 b0 92 5e 0e 40 00 00 00 08 a2 ac 14 40
       3.7961782217025757 5.168586850166321
000020 00 00 00 48 b0 ef 17 40 00 00 00 b0 29 1a 13 40
       5.984070897102356 4.775549650192261
000030 00 00 00 c0 3c d2 09 40 00 00 00 00 80 89 97 3f
       3.2276549339294434 0.022985458374023438
000040 00 00 00 00 4f 66 fa 3f 00 00 00 80 48 03 15 40
       1.649977684020996 5.253206253051758
000050 00 00 00 4c 28 04 20 40 00 00 00 7c 92 2d 23 40
       8.008119940757751 9.589008212089539
000060 00 00 00 b8 65 12 25 40 00 00 00 48 29 79 22 40
       10.535932302474976 9.236643075942993
000070 00 00 00 e0 75 ef 1d c0 00 00 00 14 0b 85 21 c0
       -7.4838480949401855 -8.759850144386292
000080 00 00 00 00 35 34 ce 3f 00 00 00 44 5f 46 21 40
       0.2359682321548462 8.637445569038391
000090 00 00 00 e0 68 d3 25 40 00 00 00 e4 b1 99 27 40
       10.912909507751465 11.800185322761536
0000a0 00 00 00 74 8b 41 22 40 00 00 00 30 33 bb 02 c0
       9.12801706790924 -2.341406226158142
0000b0 00 00 00 b8 c4 35 13 40 00 00 00 2c 09 0b 22 40
       4.802508234977722 9.021554350852966
0000c0 00 00 00 70 53 da 25 40 00 00 00 88 2c ae 23 40
       10.926417827606201 9.84018349647522
0000d0 00 00 00 28 67 0d 22 40 00 00 00 60 fb 4e 23 40
       9.026177644729614 9.654261589050293
0000e0 00 00 00 f0 d1 79 05 c0 00 00 00 00 38 7d d6 3f
       -2.684482455253601 0.3513927459716797
0000f0 00 00 00 a0 7f f2 fe 3f 00 00 00 10 70 ba 0b 40
       1.9342037439346313 3.4660340547561646
000100 00 00 00 20 eb 32 0f 40 00 00 00 a0 e5 7d 0f 40
       3.89986252784729 3.9364731311798096
000110 00 00 00 d0 82 bf 08 40 00 00 00 f0 37 5c 02 c0
       3.09351122379303 -2.295028567314148
000120 00 00 00 00 87 23 c6 3f 00 00 00 88 aa 1b 14 40
       0.17295920848846436 5.027017712593079
000130 00 00 00 d0 39 03 1f 40 00 00 00 5c 3d ca 22 40
       7.753150224685669 9.394999384880066
000140 00 00 00 bc 2a c7 23 40 00 00 00 f8 56 5a 23 40
       9.888997912406921 9.67644476890564
000150 00 00 00 b0 65 80 06 c0 00 00 00 80 9f 3d f0 bf
       -2.812693953514099 -1.0150446891784668
000160 00 00 00 e0 11 41 13 40 00 00 00 f8 df 49 23 40
       4.813544750213623 9.644286870956421
000170 00 00 00 cc c2 eb 24 40 00 00 00 a0 a5 f2 25 40
       10.46047055721283 10.973919868469238
000180 00 00 00 c0 6b 2e 23 40 00 00 00 70 21 8a 15 c0
       9.590665817260742 -5.384893178939819
000190 00 00 00 a0 37 1d 1a c0 00 00 00 c0 62 22 12 c0
       -6.5285325050354 -4.5335798263549805
0001a0 00 00 00 20 40 e3 fe bf 00 00 00 40 68 fe ee 3f
       -1.9304810762405396 0.9685555696487427
0001b0 00 00 00 30 fd f9 02 40 00 00 00 60 ee 7d f4 3f
       2.37206494808197 1.2807449102401733
0001c0 00 00 00 80 ed f0 de bf 00 00 00 60 42 96 fd 3f
       -0.4834550619125366 1.8491843938827515
0001d0 00 00 00 60 3f 0b 0b 40 00 00 00 c8 bb 93 12 40
       3.3804919719696045 4.644271016120911
0001e0 00 00 00 30 b3 9f 16 40 00 00 00 38 5a ac 15 40
       5.655956983566284 5.418312907218933
0001f0 00 00 00 d0 80 82 17 40 00 00 00 00 bb 86 01 c0
       5.877444505691528 -2.190786361694336
000200 00 00 00 f0 e4 74 16 40 00 00 00 24 5c 9e 25 40
       5.614154577255249 10.809296727180481
000210 00 00 00 48 38 eb 26 40 00 00 00 5c 81 c6 26 40
       11.459413766860962 11.387705683708191
000220 00 00 00 c8 ff 5f 25 40 00 00 00 5c da 6f 20 40
       10.687498331069946 8.218462824821472
