experiments/layer_sweep/layer_sweep_results/propensities_layer_12.npy (npy, 688 bytes, 1 tensors)

array f8 [10, 7]
00000000: 0000 0000 f0d4 ef3f 0000 0000 f25f 0340
00000010: 0000 0070 2073 1140 0000 0008 a2ac 1440
00000020: 0000 0030 253d 1140 0000 00a0 a9cc 0540
00000030: 0000 00e0 0b6a 0340 0000 0080 5e2d 0bc0
00000040: 0000 0000 9ced fcbf 0000 00d0 67cf 0440
00000050: 0000 004c 2804 2040 0000 00f0 8aa9 2140
00000060: 0000 00c8 4ab1 2040 0000 0000 fd60 0440
00000070: 0000 0048 abb9 1fc0 0000 0080 c047 20c0
00000080: 0000 0040 1fc3 e4bf 0000 0044 5f46 2140
00000090: 0000 0030 84cc 2240 0000 00f8 a481 1a40
000000a0: 0000 0080 d8fa d53f 0000 0050 a871 0c40
000000b0: 0000 0008 1c32 1840 0000 0054 60c2 2240
000000c0: 0000 0070 53da 2540 0000 00fc 8a90 2540
000000d0: 0000 0030 c0b0 2540 0000 0040 d589 2240
000000e0: 0000 00c0 9556 f9bf 0000 0000 8f18 c0bf
000000f0: 0000 00b0 156a 0040 0000 0010 70ba 0b40
00000100: 0000 0000 e8b1 0540 0000 00f0 1b67 0440
00000110: 0000 0080 5ad5 ff3f 0000 00b8 79b8 18c0
00000120: 0000 0000 f4bc fbbf 0000 00d0 82be 1240
00000130: 0000 00d0 3903 1f40 0000 00a0 2f2e 2140
00000140: 0000 0050 3d3c 1a40 0000 0050 5c99 1440
00000150: 0000 0080 af70 15c0 0000 00e0 21fe 0fc0
00000160: 0000 00a0 c244 1140 0000 00f8 df49 2340
00000170: 0000 00a0 2aa8 2240 0000 007c c46b 2040
00000180: 0000 0048 0fca 1140 0000 0080 b5bd 1bc0
00000190: 0000 0090 b461 1cc0 0000 00b0 409e 15c0
000001a0: 0000 0020 40e3 febf 0000 0000 cb60 c13f
000001b0: 0000 0070 0be0 0040 0000 00a0 3c46 f73f
000001c0: 0000 0000 0013 49bf 0000 00e0 13ae f53f
000001d0: 0000 00a0 7ab1 0c40 0000 00c8 bb93 1240
000001e0: 0000 0070 b088 1140 0000 0080 7c77 1340
000001f0: 0000 0088 c730 1240 0000 00a0 b6b1 0840
00000200: 0000 00e8 a51e 1a40 0000 00a0 fae0 2540
00000210: 0000 0048 38eb 2640 0000 00e0 08dc 2740
00000220: 0000 0094 08b0 2540 0000 00d8 f3cf 2140
0.9947433471679688 2.4218482971191406 4.362428426742554 5.168586850166321 4.309712171554565 2.724932909011841 2.4267804622650146 -3.397152900695801
-1.8080101013183594 2.601272225379944 8.008119940757751 8.831138134002686 8.34627366065979 2.5473575592041016 -7.931317448616028 -8.140140533447266
-0.6488186120986938 8.637445569038391 9.3994460105896 6.626605868339539 0.3434354066848755 3.5554968118667603 6.048935055732727 9.37964117527008
10.926417827606201 10.782310366630554 10.845216274261475 9.269205093383789 -1.5836389064788818 -0.12574946880340576 2.051799178123474 3.4660340547561646
2.7118682861328125 2.550346255302429 1.9895882606506348 -6.1801518201828 -1.7336311340332031 4.68604588508606 7.753150224685669 8.59020709991455
6.558827638626099 5.149766206741333 -5.360044479370117 -3.9990880489349365 4.317148685455322 9.644286870956421 9.328450202941895 8.210483431816101
4.44732391834259 -6.935262680053711 -7.095415353775024 -5.40454363822937 -1.9304810762405396 0.1357663869857788 2.109396815299988 1.4546476602554321
-0.0007652044296264648 1.3549994230270386 3.5866596698760986 4.644271016120911 4.383485555648804 4.86668586730957 4.547636151313782 3.0867741107940674
6.529929757118225 10.939412117004395 11.459413766860962 11.929755210876465 10.843815445899963 8.90615725517273
